Model: "sequential"
_________________________________________________________________
Layer (type)                 Output Shape              Param #   
=================================================================
conv2d (Conv2D)              (None, 98, 98, 16)        448       
_________________________________________________________________
max_pooling2d (MaxPooling2D) (None, 49, 49, 16)        0         
_________________________________________________________________
conv2d_1 (Conv2D)            (None, 47, 47, 32)        4640      
_________________________________________________________________
max_pooling2d_1 (MaxPooling2 (None, 23, 23, 32)        0         
_________________________________________________________________
conv2d_2 (Conv2D)            (None, 21, 21, 64)        18496     
_________________________________________________________________
max_pooling2d_2 (MaxPooling2 (None, 10, 10, 64)        0         
_________________________________________________________________
conv2d_3 (Conv2D)            (None, 8, 8, 128)         73856     
_________________________________________________________________
max_pooling2d_3 (MaxPooling2 (None, 4, 4, 128)         0         
_________________________________________________________________
conv2d_4 (Conv2D)            (None, 2, 2, 256)         295168    
_________________________________________________________________
flatten (Flatten)            (None, 1024)              0         
_________________________________________________________________
dense (Dense)                (None, 2048)              2099200   
_________________________________________________________________
dropout (Dropout)            (None, 2048)              0         
_________________________________________________________________
dense_1 (Dense)              (None, 512)               1049088   
_________________________________________________________________
dropout_1 (Dropout)          (None, 512)               0         
_________________________________________________________________
dense_2 (Dense)              (None, 131)               67203     
=================================================================
Total params: 3,608,099
Trainable params: 3,608,099
Non-trainable params: 0
_________________________________________________________________

Learning Rate: 0.0001
Loss Function: categorical_crossentropy
Dropout Rate: 0.5
Batch Size: 50
Time Train Start: 2020-06-28 13:16:40.038200
Time Train End: 2020-06-28 14:40:22.672398
Time Delta: 5022.634198
…
